ppo_model.pth (torch, 368018 bytes, 11 tensors)

conv1.weight f4 [6, 1, 3, 3]
0	0x3e6aa567	0.22914658
1	0x3eab46ba	0.33452398
2	0x3a72c919	0.0009261533
3	0x3ea8faee	0.33003944
4	0xbcc9a0bb	-0.024612775
5	0x3dcd719e	0.100314364
6	0xbe68333e	-0.22675797
7	0x3e6e9d07	0.23302089
8	0x3ebe5658	0.3717525
9	0xbe7fcefe	-0.24981305
10	0x3eb2ec52	0.34945923
11	0x3e00a6c3	0.12563615
12	0x3ea22400	0.3166809
13	0x3e15d8ff	0.14633559
14	0x3e451159	0.19244899
15	0xba272ced	-0.0006377239
16	0x3eb1f1e9	0.34754875
17	0x3e065033	0.13116531
18	0xbe1b3430	-0.15156627
19	0x3c69b119	0.014263415
20	0xbe007577	-0.1254481
21	0xbe185a3a	-0.14878169
22	0xbe5f7b2d	-0.21824332
23	0x3e9c360d	0.30509987
24	0xbf00d414	-0.50323606
25	0xbeeb82aa	-0.45998126
26	0xbd82147f	-0.063515656
27	0xbe212e11	-0.15740229
28	0x3d9b1c68	0.075737774
29	0xbe5cc307	-0.21558772
30	0x3e924b34	0.28573
31	0xbf308a60	-0.68961143
32	0x3ee493ad	0.44643918
33	0x3c9c4dd0	0.019080073
34	0xbe9b1e8e	-0.3029675
35	0x3eb8cef3	0.3609539
36	0x3ca84075	0.020538548
37	0x3e9d6a50	0.30745173
38	0x3db3ea5c	0.08784935
39	0xbda334a5	-0.079690255
40	0x3dbb23e2	0.091377035
41	0xbd644333	-0.05572815
42	0x3e4f8d8e	0.20268843
43	0x3eef9691	0.4679456
44	0x3eabdd2e	0.33567184
45	0xbe7250e2	-0.23663667
46	0x3e66340f	0.22480796
47	0x3dd72427	0.105049424
48	0x3e3c4b99	0.18388213
49	0xbe5d77b4	-0.21627694
50	0xbe9b8748	-0.3037665
51	0xbe3a9b9e	-0.18223426
52	0xbed58c84	-0.41708767
53	0x3efc4cd4	0.49277365

conv1.bias f4 [6]
0	0x3dc282cc	0.09497604
1	0x3e027107	0.12738429
2	0x3e8886c1	0.2666531
3	0x3c533004	0.012889866
4	0x3e6fcca5	0.2341791
5	0xbe2f1ad9	-0.17100085

conv2.weight f4 [12, 6, 3, 3]
0	0x3dfc31a4	0.12314156
1	0xbde36e3b	-0.11105009
2	0x3c9f5e32	0.019454096
3	0x3bae42e9	0.005318035
4	0x3d9fe7f8	0.078079164
5	0x3c41545d	0.011799899
6	0x3de60984	0.11232284
7	0xbdced9cc	-0.10100135
8	0xbdd776ed	-0.1052073
9	0xbd59ab9a	-0.053142168
10	0x3e090f1d	0.13384672
11	0x3db3ac9f	0.08773159
12	0x3e344333	0.1760376
13	0xbe3e190b	-0.1856424
14	0xbd96ca35	-0.07362787
15	0xbe13782f	-0.14401315
16	0xbea1e788	-0.31621957
17	0x3dd77aa0	0.10521436
18	0x3d358900	0.044320107
19	0x3e9fbf68	0.3120072
20	0x3bd0237c	0.0063518863
21	0xbdababc0	-0.08382368
22	0x3e2e7a65	0.17038877
23	0x3dc04769	0.093886204
24	0x3e33ec93	0.17570715
25	0x3dd95ac5	0.10613016
26	0x3e960184	0.2929803
27	0xbe8afc22	-0.27145487
28	0x3ce8ceb8	0.028418884
29	0x3dd1a333	0.10236206
30	0x3cedc56f	0.029024808
31	0xbd2cd68a	-0.042196788
32	0x3e2f8539	0.17140664
33	0xbda3b25d	-0.079930045
34	0xbec9d548	-0.39420533
35	0xbd0f25af	-0.034948047
36	0x3e83d665	0.25749508
37	0xbd97ee16	-0.07418458
38	0xbc278657	-0.0102249
39	0xbe085996	-0.13315424
40	0xbe4e8c3f	-0.20170687
41	0x3d9e593a	0.07731862
42	0x3d79b9a5	0.06096806
43	0xbdca5d84	-0.09881118
44	0x3d8d71bd	0.069064595
45	0xbe630c63	-0.22172694
46	0xbe58d7ec	-0.21176118
47	0xbe12e8ef	-0.1434667
48	0xbe0df951	-0.13864638
49	0xbe831092	-0.2559858
50	0x3e995ce7	0.2995369
51	0xbc8198a5	-0.015819857
52	0xbca399f3	-0.01997087
53	0xbdb0d2cb	-0.086339556
54	0xbe4439d9	-0.19162692
55	0x3ce4d02e	0.027931299
56	0xbbddd1c1	-0.0067693894
57	0xbddccd03	-0.107812904
58	0xbdbc3113	-0.09189048
59	0xbdd52f99	-0.10409469
60	0x3bf9ce98	0.007623505
61	0xbd33193d	-0.04372524
62	0x3d88e192	0.06683649
63	0xbe1388fc	-0.14407724
64	0xbdb2a6d4	-0.08723226
65	0xbdda3176	-0.10653965
66	0xbd7a4271	-0.06109852
67	0xbe087527	-0.1332594
68	0x3e0f47ba	0.13992205
69	0xbdf3dad9	-0.11906976
70	0x3e05bbfa	0.13059989
71	0x3d89e377	0.067328386
72	0xbe488e4d	-0.19585533
73	0x3e860b62	0.2618056
74	0xbd4753ae	-0.048663788
75	0xbd6a4b72	-0.057200857
76	0xbb824652	-0.003975668
77	0xbe0a28a4	-0.13492066
78	0x3d7c4725	0.061591286
79	0xbe0da1db	-0.13831274
80	0xbb4e58d5	-0.0031486053
81	0xbea7061c	-0.3262185
82	0x3e6fdded	0.23424502
83	0xbe09e78f	-0.13467239
84	0xbb3e33bf	-0.0029022542
85	0x3cb427d8	0.021991655
86	0x3d2e1ca0	0.042507768
87	0x3db164b8	0.08661789
88	0x3de72e22	0.11288096
89	0xbdd006b3	-0.10157528
90	0x3cc95c5a	0.02458017
91	0xbcc2af78	-0.02376531
92	0x3c059c4b	0.008154939
93	0xbe0f7aa5	-0.14011629
94	0x3dbdef1a	0.09274121
95	0xbdafcdd1	-0.08584178
96	0x3d866117	0.06561487
97	0x3d88cea7	0.06680041
98	0x3db5c637	0.08875697
99	0xbe08cba4	-0.13358933
100	0x3e4e45f7	0.20143877
101	0xbe047606	-0.12935647
102	0x3d3d75dc	0.046254978
103	0xbe17d822	-0.14828542
104	0xbc8df3ef	-0.01732823
105	0x3cd05ad0	0.025433928
106	0xbdcdfa14	-0.10057464
107	0x3e9d4396	0.30715626
108	0x3d80a1e3	0.062808774
109	0xbd52cce4	-0.05146493
110	0xb8a643d3	-7.92813e-05
111	0x3d30dbc3	0.04317833
112	0x3e011b29	0.12608017
113	0x3ba68194	0.005081365
114	0xbc85a996	-0.016316216
115	0xbb639d03	-0.0034731037
116	0xbd9a576f	-0.07536208
117	0x3daf197d	0.085497834
118	0x3e2db90f	0.16965126
119	0xbd0323ad	-0.032016445
120	0x3db54534	0.0885109
121	0x3e122fac	0.14275998
122	0x3dba535b	0.0909793
123	0xbc8abee1	-0.016936721
124	0x3df2073d	0.11817787
125	0x3deb852f	0.11500012
126	0xbd6ec9a2	-0.05829776
127	0xbe21055d	-0.15724702
128	0xbd9490b1	-0.0725416
129	0xbe38683f	-0.18008517
130	0xbe249f4d	-0.16076393
131	0xbe634883	-0.2219563
132	0xbd036453	-0.0320781
133	0x3d4ec108	0.050477058
134	0xbe1cbec3	-0.15307145
135	0x3bb4afd2	0.0055141235
136	0x3cc97741	0.024592998
137	0x3d457512	0.04820735
138	0x3dcd898e	0.10036002
139	0x3dfaba76	0.12242596
140	0xbdb09324	-0.08621815
141	0x3d17a78a	0.037025012
142	0x3e49569b	0.19661944
143	0x3d869aa5	0.06572465
144	0x3ce7542f	0.028238384
145	0xbd55c0c0	-0.052185774
146	0xbc08f203	-0.008358481
147	0xbdab7fa7	-0.08373957
148	0xbc9dca86	-0.01926161
149	0x3dbf41fb	0.09338757
150	0x3da545cd	0.08069954
151	0x3d9c1e96	0.07623021
152	0xbdde442f	-0.10852849
153	0xbdffbb54	-0.12486902
154	0xbcd0ca26	-0.025487017
155	0x3e88485e	0.26617712
156	0xbceb7bf0	-0.028745621
157	0xbbb01cee	-0.0053745424
158	0x3d9541f1	0.07287968
159	0xbc758422	-0.014985116
160	0xbd96eb21	-0.07369066
161	0x3d954ae9	0.072896786
162	0xbd221da3	-0.039579045
163	0x3c82fdbb	0.015990129
164	0xbd570d5c	-0.052502975
165	0x3deb914a	0.11502321
166	0x3e24584a	0.16049305
167	0x3db14bad	0.08657012
168	0xbdbebe4e	-0.093136415
169	0xbddeb908	-0.10875136
170	0xbde3667b	-0.11103531
171	0x3e0a4dc0	0.13506222
172	0x3dee8762	0.11646916
173	0x3e7be9fe	0.2460098
174	0x3e01e2c9	0.12684168
175	0x3df44eb6	0.119290754
176	0x3d6078f9	0.05480287
177	0xbde210be	-0.110383496
178	0xbddc657e	-0.107615456
179	0xbe0795b6	-0.13240704
180	0xbd1bb50d	-0.03801446
181	0xbe817694	-0.2528578
182	0xbe6b5e09	-0.2298509
183	0xbe29359f	-0.16524361
184	0xbe2b3baa	-0.16721979
185	0xbe755fe8	-0.23962367
186	0xbe980861	-0.29693893
187	0x3d499cf2	0.04922194
188	0xbe1ff620	-0.15621233
189	0x3e010506	0.12599573
190	0xbcff9e52	-0.031203423
191	0xbd267150	-0.040635407
192	0x3d11cbfc	0.035594925
193	0xbd03614c	-0.03207521
194	0xbcc4ef51	-0.024039896
195	0xbe110575	-0.14162238
196	0x3e3c4721	0.18386509
197	0xbdf05378	-0.117346704
198	0x3dd25405	0.10269932
199	0x3e19a2df	0.15003537
200	0x3e2681e8	0.16260493
201	0xbe01bf88	-0.1267072
202	0x3dd67310	0.10471165
203	0xbd951254	-0.072788864
204	0x3c5a7060	0.013332456
205	0x3dc530fa	0.09628482
206	0xbcde0d7f	-0.027106045
207	0x3dbd2978	0.09236425
208	0xbb0312eb	-0.002000029
209	0xbe1aebdd	-0.15129037
210	0xbc7b2454	-0.0153284855
211	0xbe140e4f	-0.14458583
212	0x3d5ed9d7	0.054406967
213	0xbbee6b96	-0.007276009
214	0x3e60f47e	0.21968266
215	0xbe1261b6	-0.14295086
216	0xbddb3e88	-0.10705286
217	0x3d4cac89	0.04996923
218	0x3e2ca590	0.16860032
219	0xbe0952f6	-0.13410553
220	0xbb17e792	-0.0023178798
221	0xbdce902b	-0.100860916
222	0x3daa1eb0	0.083066344
223	0xbd953c12	-0.07286848
224	0xbbfeca8f	-0.0077756117
225	0xbd5b87e0	-0.053596377
226	0xbdf82704	-0.12116817
227	0x3e1d926e	0.1538789
228	0x3ddc88fc	0.10768315
229	0x3cdda487	0.027055992
230	0xbcb1a6ac	-0.02168592
231	0xbcee184d	-0.029064322
232	0xbd951ef6	-0.07281296
233	0xbdcb2f7d	-0.09921167
234	0x3d67dee5	0.056609053
235	0xbdf45abc	-0.11931369
236	0xbdba9ba4	-0.09111717
237	0xbe0cce22	-0.13750508
238	0x3cb63326	0.022241186
239	0xbe042ab3	-0.12906913
240	0xbd17e3e9	-0.037082586
241	0xbd940e15	-0.072292484
242	0xbdd726f2	-0.10505475
243	0xbccee7a6	-0.025256943
244	0xbde95681	-0.113934524
245	0x3e485728	0.19564497
246	0xbdbe235d	-0.09284089
247	0x3dd5816d	0.10425077
248	0xbd876053	-0.06610169
249	0x3d888783	0.06666472
250	0x3de2c4b7	0.11072677
251	0x3dd326ea	0.10310157
252	0xbe3000c3	-0.1718779
253	0x3d992598	0.074778736
254	0x3e23e847	0.16006576
255	0x3d5518eb	0.052025717

conv2.bias f4 [12]
0	0xbd47f80e	-0.048820548
1	0xbc49fbcd	-0.0123281
2	0xbcf1402e	-0.029449549
3	0x3c74ff85	0.014953499
4	0x3dadd373	0.08487596
5	0xbdaed56a	-0.08536799
6	0x3dcb619d	0.09930728
7	0x3dbbb98d	0.091662504
8	0xbc8757c5	-0.016521344
9	0xbdc862ca	-0.097844675
10	0xbd6a3894	-0.057182863
11	0xbd9f12d2	-0.077672616

conv3.weight f4 [24, 12, 3, 3]
0	0xbe055b49	-0.13023104
1	0xbd68dcfc	-0.056851372
2	0xbded84ec	-0.115976185
3	0x3b32c9a4	0.0027280832
4	0xbe3a9e43	-0.18224435
5	0xbd5757d2	-0.052573986
6	0x3d0c202e	0.034210376
7	0xbe818cfb	-0.25302872
8	0xbe14b9df	-0.14524029
9	0xbd752703	-0.059851658
10	0x3e208a45	0.15677746
11	0xbde16a8e	-0.11006652
12	0xbdf05568	-0.1173504
13	0x3b462e57	0.0030240023
14	0x3d694e8a	0.056959666
15	0x3e090ba6	0.1338335
16	0xbe80f2b4	-0.25185168
17	0xbdb79dad	-0.08965621
18	0x3d9d523f	0.07681703
19	0x3e060064	0.13086087
20	0x3dc99f9c	0.09844896
21	0x3d790ea2	0.06080497
22	0x3dbd98e7	0.092576794
23	0x3e1f49e1	0.15555526
24	0xbcea4580	-0.028597593
25	0x3c286914	0.010278959
26	0x3e27d78f	0.16390823
27	0xbd6fb7b4	-0.058524802
28	0xbd56761a	-0.052358724
29	0x3deb40dd	0.11486981
30	0x3d38075f	0.044928905
31	0x3d9fcee7	0.07803135
32	0xbb6242b6	-0.0034524626
33	0x3d95cd09	0.07314498
34	0x3e513dc6	0.20433721
35	0xbb023771	-0.0019869471
36	0xbb81615e	-0.0039483747
37	0x3d7de567	0.061986353
38	0xbca4cec2	-0.020118121
39	0x3e018fcc	0.1265251
40	0xbd7b6647	-0.061376836
41	0xbba66a15	-0.005078564
42	0xbd962e52	-0.07333054
43	0xbd71b2df	-0.059008475
44	0xbdde08b4	-0.10841504
45	0x3d949a8f	0.07256042
46	0xbde36848	-0.111038744
47	0xbdece58a	-0.115672186
48	0xbe06dcc4	-0.13170153
49	0x3ddcf4f0	0.107889056
50	0xbce04645	-0.027377257
51	0xbcff31ff	-0.03115177
52	0xbe15946d	-0.14607401
53	0xbdf18cac	-0.11794409
54	0xbc702aa7	-0.014658607
55	0x3734d08b	1.0777391e-05
56	0xbd97dc1a	-0.07415028
57	0x3d8315cb	0.06400641
58	0x3d63b578	0.055592984
59	0xbc2f81f7	-0.010712138
60	0xbae95823	-0.0017802756
61	0xbd955d4c	-0.072931856
62	0x3d8eb761	0.069685705
63	0xbcace287	-0.02110411
64	0xbdc66d11	-0.096887715
65	0xbde056f7	-0.10954087
66	0xbccf343c	-0.025293462
67	0x3d1f3d61	0.038876895
68	0xbde93692	-0.113873616
69	0x3d812aaf	0.063069694
70	0xbd84303e	-0.06454514
71	0x3defb63f	0.117046826
72	0x3d5652e1	0.052325133
73	0xbd4e0ed3	-0.050307106
74	0x3e09d99d	0.13461919
75	0xbd52f14f	-0.05149966
76	0x3c8ff4a1	0.017572703
77	0x3d8ce1e6	0.06879024
78	0xbb7111d9	-0.003678432
79	0x3e5ab5fe	0.21358487
80	0x3db40353	0.087896965
81	0x3d61aef5	0.055098493
82	0xbd6f1068	-0.058365256
83	0x3dddc3a4	0.10828331
84	0xbc72401b	-0.014785792
85	0xbc6ca6fd	-0.01444411
86	0x3de03101	0.10946847
87	0x3ddee847	0.10884147
88	0x3e3ab8b9	0.18234529
89	0xbba2e5a4	-0.004971223
90	0xbd6864f0	-0.056736887
91	0xbdb12d7c	-0.086512536
92	0xbb2faf63	-0.002680742
93	0xbd437955	-0.047723133
94	0x3da49c50	0.08037627
95	0xbd082349	-0.033236776
96	0x3da365e5	0.07978419
97	0x3d0cd03a	0.034378268
98	0xbe13291e	-0.14371154
99	0x3d9dc8e7	0.07704335
100	0x3d93063f	0.07178926
101	0x3e112a71	0.14176346
102	0xbd3d42b8	-0.046206206
103	0xbbc10fb9	-0.005891767
104	0x3cfa7d16	0.030577224
105	0x3d2699ef	0.040674146
106	0x3e0f3e45	0.13988598
107	0xbc886ff7	-0.016654951
108	0xbd8a0ece	-0.06741105
109	0xbe2b2432	-0.16713026
110	0xbdcf8c36	-0.10134165
111	0xbe0cff1e	-0.13769194
112	0xbe129f2a	-0.14318529
113	0xbe075fed	-0.13220187
114	0xbddc6a07	-0.107624106
115	0xbdb66a90	-0.08907044
116	0xbe182af4	-0.14860135
117	0xbdbff5b5	-0.09373037
118	0x3cb1a8f8	0.021687016
119	0xbd83b77a	-0.0643148
120	0xbc967fc7	-0.018371476
121	0xbe0f9069	-0.14019932
122	0xbdfe8c53	-0.124291085
123	0xbb803140	-0.003912121
124	0xbe601840	-0.2188425
125	0xbd1b2029	-0.037872467
126	0x3cf0f972	0.02941582
127	0x3bd80105	0.0065919184
128	0x3dd60a15	0.10451142
129	0x3e1c0e2d	0.15239783
130	0x3db645a5	0.089000024
131	0x3c0bb06c	0.008525949
132	0xbcb456b5	-0.022014001
133	0x3daa97e5	0.08329753
134	0xbc6982e3	-0.014252397
135	0x3d4f6c1e	0.050640218
136	0x3d20b7f2	0.039237924
137	0x3dbd3d6f	0.09240233
138	0x3dc8195e	0.097704634
139	0x3e2347bf	0.15945338
140	0x3d9516bf	0.07279729
141	0xbd2fd312	-0.0429259
142	0x3e48f0c3	0.19623093
143	0xbc9c0ba4	-0.01904852
144	0xbdbb5d6c	-0.09148678
145	0x3dc166cb	0.09443434
146	0x3d90541a	0.07047291
147	0x3d1cf339	0.038317893
148	0xbc6693dc	-0.014073338
149	0xbddbf13b	-0.107393704
150	0xbd216d6a	-0.039410986
151	0x3dae40c1	0.085084446
152	0x3d024afa	0.031809784
153	0xbc9e2bda	-0.01930802
154	0xbdad6fec	-0.08468613
155	0xbda415ea	-0.08011992
156	0x3b5715b3	0.003281933
157	0xbda41c4d	-0.080132104
158	0xbc11b667	-0.008893586
159	0xbd616149	-0.05502442
160	0x3da88674	0.0822877
161	0xbd853978	-0.06505102
162	0x3b4a28b7	0.0030847022
163	0x3d4a131e	0.049334638
164	0x3d46fc97	0.048580732
165	0x3ddb0a11	0.106952794
166	0x3d6ef84e	0.05834227
167	0xbd4b9e72	-0.049711652
168	0xbd60a6ae	-0.054846458
169	0xbd04ce50	-0.032423317
170	0xbc362f76	-0.011119714
171	0xbdc1bffd	-0.09460447
172	0xbe1c71bd	-0.15277763
173	0xbda7b925	-0.081896104
174	0x3c6a1ae0	0.014288634
175	0x3d2eaa8c	0.042643115
176	0xbcafd16f	-0.02146217
177	0xbb88e2bb	-0.004177419
178	0x3ca02bf7	0.019552214
179	0x3cd512f3	0.026010012
180	0x3e138048	0.14404404
181	0x3e0cf208	0.13764203
182	0x3e2bd6e9	0.167812
183	0x3d226ad4	0.03965266
184	0x3d78e3dd	0.060764182
185	0x3dbe3d0a	0.09288986
186	0xbcfef236	-0.031121355
187	0x3d832141	0.06402827
188	0x3c934316	0.017976325
189	0xbd23f130	-0.040024936
190	0xbd6ef182	-0.05833579
191	0x3e0418bc	0.1290006
192	0x3e0c3985	0.13693817
193	0x3e01e35c	0.12684387
194	0x3e158aa2	0.14603665
195	0x39ae6684	0.00033264246
196	0x3d24d720	0.04024422
197	0x3d5a3299	0.05327091
198	0xbd95624e	-0.07294141
199	0xbe0f4a71	-0.13993241
200	0xbdeba79f	-0.115065806
201	0x3c9a1e76	0.018813353
202	0xbd9cb0e9	-0.076509304
203	0xbcfd242c	-0.030901037
204	0x3d7ca1ca	0.06167773
205	0x3bc76642	0.006085188
206	0xbda180ed	-0.07885919
207	0x3d8323ea	0.064033344
208	0xbc9db43b	-0.01925098
209	0x3d17c26a	0.037050642
210	0x3dd923fb	0.10602566
211	0x3c6db76c	0.014509063
212	0xbd0ea320	-0.034823537
213	0xbd39d8c7	-0.04537275
214	0x3b272e6b	0.0025509845
215	0xbd516999	-0.051126096
216	0xbe05105c	-0.12994522
217	0x3c91ec30	0.017812818
218	0x3cf964a0	0.03044349
219	0x3d622939	0.055215094
220	0xbe25c319	-0.16187705
221	0xbde6e6a4	-0.1127446
222	0xbb8ce5a6	-0.004299837
223	0xbe5b3aab	-0.21409099
224	0xbcf2a7a6	-0.029620957
225	0x3d565575	0.052327592
226	0xbd92a331	-0.071600325
227	0xbe135d97	-0.1439117
228	0xbc9b861c	-0.018984847
229	0x3988f75c	0.00026124239
230	0x3d88e26e	0.06683813
231	0xbd504484	-0.05084659
232	0x3aac66c3	0.0013153184
233	0xbd91b2bd	-0.0711417
234	0x3db14236	0.08655207
235	0xbd1e3f29	-0.038634453
236	0xbc037b96	-0.008025071
237	0x3d80f23f	0.06296205
238	0x3e32d617	0.17464481
239	0x3d0414ff	0.032246586
240	0x3d3a26b3	0.045447063
241	0x3dd7e0b6	0.10540907
242	0xbd3a1889	-0.045433555
243	0xbd53f5f7	-0.051748242
244	0xbcd86b04	-0.026418217
245	0x3e2c6b65	0.16837843
246	0x3df18bf6	0.117942736
247	0x3e002237	0.12513052
248	0x3b27578c	0.002553436
249	0x3c161347	0.0091598695
250	0x3e042b3c	0.12907118
251	0x3dd29f1e	0.102842554
252	0x3df35112	0.11880697
253	0xbdc43506	-0.09580426
254	0x3da8529d	0.08218882
255	0x3d22d702	0.03975583

conv3.bias f4 [24]
0	0x3be5b303	0.0070098653
1	0xbd246843	-0.040138494
2	0xbd3c83b6	-0.046024047
3	0xbd7c3318	-0.061572164
4	0xbd0ccf5a	-0.034377433
5	0xbc4430b6	-0.011974504
6	0x3d089086	0.033340953
7	0xbd058098	-0.03259334
8	0x3c96f10c	0.018425487
9	0x3acb8ce8	0.0015529664
10	0xbd8095f1	-0.06278599
11	0xbd036128	-0.032075077
12	0xbce4a478	-0.027910456
13	0xbd389155	-0.045060474
14	0xbd38aaf4	-0.04508491
15	0xbda99008	-0.08279425
16	0x3db3baee	0.087758884
17	0xbda670d9	-0.08126993
18	0x3adc87bf	0.0016825123
19	0xbd850d39	-0.06496663
20	0xbd759440	-0.059955835
21	0xbd5ab650	-0.053396523
22	0xbd04dc71	-0.03243679
23	0xbbc72418	-0.0060773008

fc1.weight f4 [56, 1560]
0	0x3d513ada	0.051081516
1	0x3bf3d697	0.0074413526
2	0xbbb46ed3	-0.0055063753
3	0x3d2ea911	0.042641703
4	0x3ce97095	0.028496066
5	0xbd226f6f	-0.039657053
6	0x3cb06d2b	0.02153643
7	0xbb2485c2	-0.002510414
8	0xbca340a1	-0.019928278
9	0x3bff7d3c	0.0077969115
10	0xbc8b5b74	-0.017011382
11	0xbd029838	-0.03188345
12	0xbe182c76	-0.1486071
13	0x3d322801	0.043495182
14	0x3d1d10d0	0.03834611
15	0x3d05b289	0.032640968
16	0x3cb682eb	0.022279223
17	0x3ce18a52	0.027531777
18	0x3aa534ff	0.0012604295
19	0x3c869d6f	0.016432492
20	0x3bb66095	0.0055657127
21	0xbc942c64	-0.018087573
22	0xba9a46e9	-0.00117704
23	0xbc71e9e3	-0.014765236
24	0xbd266553	-0.040623974
25	0xbda3fc2b	-0.080070816
26	0x3db14a1b	0.086567126
27	0x3ceb36cd	0.028712654
28	0xbbd7b8bc	-0.0065833014
29	0x3cf3c10c	0.029755138
30	0x3a163a44	0.0005730728
31	0x3b8f74c8	0.004377935
32	0x3bd1a1ab	0.006397446
33	0x3c600872	0.0136738885
34	0xbd37b51e	-0.04485046
35	0xbcf74319	-0.030183362
36	0xbd1a4bb8	-0.037669867
37	0xbd6e45fd	-0.058172215
38	0xbc9ac9ec	-0.018895112
39	0x3d8331c1	0.06405974
40	0x3ce9409b	0.02847319
41	0x3d3b9763	0.04579867
42	0x3d228564	0.039677992
43	0xbbed33c1	-0.0072388356
44	0xbcc78c1e	-0.024358805
45	0xbbb239ef	-0.005439035
46	0xbc7712fb	-0.015080209
47	0xbd1807ed	-0.037116934
48	0xbd5f282e	-0.054481678
49	0xbe165905	-0.14682396
50	0xbcf2a916	-0.029621642
51	0xbce7057a	-0.028200854
52	0xbc386a07	-0.011255748
53	0xbb86f368	-0.0041183718
54	0x3c209b37	0.009802631
55	0xbbe9cd4a	-0.007135068
56	0xbba32927	-0.004979271
57	0xbcf0d115	-0.029396573
58	0xbc7f6c02	-0.015589716
59	0xbd9885ad	-0.07447372
60	0xbcb8bfce	-0.022552397
61	0xbd099f36	-0.0335991
62	0xbd2baf3b	-0.04191516
63	0xbd135f5b	-0.03597961
64	0xbd491bb2	-0.049098678
65	0x3d854e18	0.06509036
66	0x3d98eecc	0.07467422
67	0xba098c41	-0.0005247035
68	0x3db49d7b	0.088190995
69	0x3db1051c	0.08643553
70	0xbdfa2ee1	-0.12215973
71	0x3bd76560	0.006573364
72	0x3c37ff7a	0.011230344
73	0x3c0f2f68	0.00873933
74	0xbc88bdb9	-0.01669203
75	0x3c8bc003	0.017059332
76	0xbe00f38d	-0.12592907
77	0xbdf4549e	-0.11930202
78	0x3d6712cd	0.056414414
79	0x3d37b67d	0.04485177
80	0x3d2df888	0.042473346
81	0x3c9634bd	0.018335694
82	0x3cefc136	0.029266935
83	0x3cacd720	0.021098673
84	0x3cda4147	0.026642455
85	0x3cf16365	0.02946634
86	0x3c3c0722	0.01147631
87	0xbadc0a4a	-0.0016787734
88	0x3caaf906	0.020870697
89	0xbd868fa9	-0.0657037
90	0xbd3bd2ea	-0.04585544
91	0x3d5c47bd	0.053779352
92	0x3d88d567	0.06681328
93	0x3ca4b64b	0.020106455
94	0x3d1c2523	0.038121354
95	0x3bcc08f1	0.006226652
96	0x3d25e2d7	0.040499534
97	0x3ccbcc71	0.024877759
98	0x3ceef0ae	0.0291675
99	0xbcc0367e	-0.023463484
100	0x3c2971cd	0.010342074
101	0xbcf23c06	-0.029569637
102	0xbc95d5f0	-0.01829049
103	0xbd837d67	-0.06420403
104	0x3d936d2a	0.07198556
105	0x3cba1632	0.022715662
106	0x3b222bed	0.002474542
107	0x3c1e522a	0.009663144
108	0x3c768a87	0.015047676
109	0x3cd3efe7	0.02587123
110	0x3ccb97d6	0.024852674
111	0xbd09ac31	-0.03361148
112	0xbd3f9f70	-0.04678291
113	0xbda89cd0	-0.082330346
114	0xbce4fb8e	-0.027951982
115	0xbd009abd	-0.03139757
116	0xbc98a8d8	-0.018635198
117	0x3cebb903	0.028774744
118	0x3cb36bbe	0.021901961
119	0x3d447831	0.047966186
120	0x3bbb5ab0	0.005717598
121	0xb99b9997	-0.00029678337
122	0xbbd23286	-0.0064147143
123	0xbb340418	-0.002746826
124	0xbccbfb0f	-0.024899988
125	0xbd582728	-0.052771717
126	0xbda0c1df	-0.07849478
127	0xbd62c33a	-0.055361964
128	0xbca18654	-0.019717373
129	0xbd271ec4	-0.040800825
130	0x3cc2883f	0.023746608
131	0x3c580b2a	0.0131862555
132	0x3c08b00e	0.008342756
133	0x3dcfe5da	0.101512626
134	0x3d73c5f6	0.059514962
135	0x3c619010	0.013767257
136	0xbc793449	-0.01521022
137	0xb8205707	-3.8228023e-05
138	0xbcfca7e3	-0.030841773
139	0x3c589327	0.013218678
140	0xbc786c62	-0.015162559
141	0xbca8f3c2	-0.020624045
142	0xbe4a8c4d	-0.19780083
143	0x3c991515	0.01868681
144	0x3db159c0	0.086596966
145	0x3c06d644	0.008229796
146	0x3d033f39	0.032042716
147	0x3d809d4b	0.06280001
148	0x3d3c1529	0.045918617
149	0x3c163c51	0.009169654
150	0x3c88f7b1	0.016719671
151	0xbc88e20a	-0.016709346
152	0xbc0238e3	-0.007948133
153	0xbca753f4	-0.020425774
154	0xbd8cbbdc	-0.06871769
155	0xbddaa983	-0.10676863
156	0x3dd4a5ca	0.10383184
157	0x3c823a16	0.015896838
158	0x3cff09f4	0.031132676
159	0x3c43c1bd	0.011948046
160	0x3bfb6b6d	0.0076727183
161	0x3b837775	0.004012043
162	0xbc8375c9	-0.016047375
163	0x3c15f618	0.009152912
164	0xbd77898a	-0.0604339
165	0xbdab1d16	-0.08355157
166	0xbcb1c679	-0.021701084
167	0x3c78cbe1	0.015185327
168	0xbd37761a	-0.044790365
169	0x3d23ec71	0.04002041
170	0x3d028eef	0.031874593
171	0x3badf100	0.0053082705
172	0x3d050a87	0.032480743
173	0x3d00398e	0.03130489
174	0xbbedf746	-0.0072621433
175	0x3c03f9f0	0.008055195
176	0x3b1e1843	0.0024123348
177	0xbda27248	-0.07931954
178	0xbca38f81	-0.019965889
179	0xbd813d47	-0.06310516
180	0xbd0a353b	-0.03374217
181	0xbd42bb40	-0.047541857
182	0x3b7e1c78	0.0038774293
183	0x3c9a7130	0.0188528
184	0x3be14d14	0.0068756435
185	0x3d1ff8e9	0.03905574
186	0x3c22520b	0.009907256
187	0xbd479048	-0.04872158
188	0xbcef3464	-0.029199786
189	0xbd3a991e	-0.04555618
190	0x3c7cbe53	0.015426236
191	0xbdb83656	-0.08994739
192	0xbdf7874d	-0.120863535
193	0xbd7be42c	-0.0614969
194	0xbd90ef58	-0.07076901
195	0x3d4ed98c	0.050500438
196	0x3d964f39	0.07339329
197	0x3dc3d4b9	0.09562058
198	0x3d4179e8	0.0472354
199	0x3cb8ef94	0.022575177
200	0x3cfa0797	0.030521197
201	0xbdda27ae	-0.106520995
202	0x3d224f82	0.039626606
203	0xbc6ead71	-0.014567719
204	0x3b126247	0.002233641
205	0x3bc9438e	0.0061420863
206	0xbb0eb94a	-0.0021777921
207	0xbd738028	-0.05944839
208	0x3d009167	0.031388666
209	0x3bd744fe	0.006569504
210	0x3c803286	0.015649091
211	0x3c0f6b73	0.008753645
212	0x3cf15455	0.029459158
213	0xbbff5848	-0.0077925064
214	0x3cdc78ab	0.026913008
215	0x3b4dc979	0.0031400605
216	0xbc20774e	-0.009794069
217	0xbcb1cce4	-0.021704145
218	0xbd600ce3	-0.05469979
219	0xbb44a205	-0.0030003798
220	0xbd8e9fc1	-0.069640644
221	0x3d396eb4	0.04527159
222	0x3c4251d7	0.011860332
223	0x3c8134a4	0.015772171
224	0x3d30336b	0.043017786
225	0x3c0d9d0e	0.008643402
226	0x3d0cb423	0.03435148
227	0x3d2bc64b	0.041937154
228	0xbd3d8cc4	-0.046276823
229	0xbcfaaf10	-0.030601054
230	0xbccff37c	-0.025384657
231	0x3bab9f0f	0.005237467
232	0xbc8f7717	-0.017512841
233	0xbc13b329	-0.009014883
234	0x3d876bd2	0.06612362
235	0x3c5ea1be	0.013588367
236	0x3d85f8d0	0.06541598
237	0xbc65cea4	-0.014026318
238	0xbbb87e42	-0.0056302855
239	0x3ca15407	0.019693388
240	0xbd4091fd	-0.047014225
241	0xbc5600df	-0.013061731
242	0xbdf8c745	-0.12147383
243	0x3ca92f63	0.020652479
244	0xbc94e97f	-0.018177746
245	0xbdba84a7	-0.09107333
246	0xbce93685	-0.02846838
247	0x3d24fcad	0.040280033
248	0xbb5911af	-0.0033122113
249	0x3d59f21c	0.05320941
250	0x3d441e42	0.04788042
251	0xba4a37b9	-0.0007713992
252	0xb88866c9	-6.5041306e-05
253	0x3c99f379	0.018792855
254	0x3c36fcb1	0.011168645
255	0xbe380fe6	-0.17974815

fc1.bias f4 [56]
0	0xbc5a8ba7	-0.01333896
1	0xbccc495a	-0.02493732
2	0x3cb50aae	0.022099819
3	0xbcbad9fc	-0.022809021
4	0x3dda10cb	0.10647734
5	0xbc2c888e	-0.010530604
6	0xbc77fe73	-0.015136349
7	0x3cad4c77	0.021154625
8	0xbcbaf82b	-0.022823414
9	0x3ba47c49	0.0050196988
10	0x3bf5278e	0.007481522
11	0xb8929dc4	-6.991209e-05
12	0xbc3fa35f	-0.011696666
13	0xbc5f395c	-0.013624515
14	0xbc24235f	-0.010018199
15	0xbc4ed230	-0.012623355
16	0xbcc0634f	-0.023484854
17	0xbd0bd7f1	-0.034141485
18	0xbcf18e3f	-0.029486774
19	0xbaa79fdf	-0.0012788734
20	0xbd0660e7	-0.032807257
21	0x3c82cbba	0.015966285
22	0xbb31ffa1	-0.0027160423
23	0xba8286dc	-0.0009958404
24	0x3bd36b51	0.006452002
25	0xbca3770c	-0.019954227
26	0x3e0f764a	0.14009967
27	0xbca8d32a	-0.020608503
28	0xbc36320e	-0.011120332
29	0xbcf7239f	-0.030168353
30	0x3ba1c6ae	0.0049370145
31	0x3c885433	0.016641712
32	0xbb84211c	-0.0040322673
33	0xbc07adbc	-0.008281168
34	0x3d452256	0.04812845
35	0xbb0cd60e	-0.0021489891
36	0xbce99d83	-0.02851749
37	0xbccf8d25	-0.025335858
38	0x3c8f8895	0.017521182
39	0x3d498853	0.049202275
40	0xbcd401f5	-0.02587984
41	0x3c6f1da7	0.014594472
42	0x3c6e1f24	0.014533792
43	0x3c0465d2	0.0080809165
44	0xbcd3de1b	-0.025862744
45	0xbc55169c	-0.013005879
46	0xbc6b1273	-0.01434766
47	0xbcaf3807	-0.02138902
48	0xbd8fb5f4	-0.07017127
49	0xbb32d667	-0.0027288438
50	0x3b15e5ee	0.0022872644
51	0xbc948c82	-0.018133406
52	0xbd0ff76d	-0.035148073
53	0x3c8cfd1b	0.017210534
54	0x3b7e096a	0.0038762935
55	0x3be83bb8	0.007087197

actor.weight f4 [4, 56]
0	0xbd68c6e9	-0.05683032
1	0x3dbdbe0d	0.09264765
2	0xbda65b5a	-0.08122893
3	0xbd84f5ef	-0.064922206
4	0x3e801d89	0.25022534
5	0x3e1d4975	0.15360053
6	0xbcf17833	-0.02947626
7	0xbd57e684	-0.05271007
8	0x3d62653e	0.055272333
9	0x3d9615c9	0.07328374
10	0x3d03b212	0.032152243
11	0xbcb7ece3	-0.022451824
12	0x3dce0194	0.10058895
13	0x3d7d098e	0.06177669
14	0x3d6bda04	0.057580963
15	0xbd88cb63	-0.06679418
16	0xbd6ca40a	-0.057773627
17	0x3ddcf1b7	0.10788291
18	0xbde52cfd	-0.111902215
19	0x3e48add1	0.19597556
20	0xbd4e070f	-0.0502997
21	0xbd7a3387	-0.061084297
22	0x3d4516e7	0.048117545
23	0x3d2e8c43	0.042614233
24	0xbd42d2fe	-0.0475645
25	0x3dccbd7b	0.09997078
26	0x3e6d6234	0.23181993
27	0xbdfb5333	-0.12271728
28	0x3c2cbe4e	0.010543419
29	0x3c154d06	0.009112602
30	0xbce1f588	-0.027582899
31	0xbd98ce11	-0.07461179
32	0x3d9dc3bc	0.07703349
33	0x3d481c3c	0.04885505
34	0x3cc10f3b	0.023566833
35	0x3e3356e6	0.17513618
36	0xbda7dbf1	-0.08196247
37	0x3db25dc1	0.087092884
38	0xbdc5f0e6	-0.09665088
39	0xbd376bc8	-0.044780523
40	0x3d7130a4	0.058884278
41	0xbdc209dc	-0.09474537
42	0x3db3c0e1	0.08777023
43	0xbce89bae	-0.028394546
44	0x3d977be6	0.073966786
45	0x3d02df0f	0.031951007
46	0x3cdd6ce9	0.027029471
47	0x3d9339c2	0.07188751
48	0xbd8e4ce0	-0.069482565
49	0x3cf5dc93	0.030012405
50	0x3da3be27	0.07995253
51	0x3d90bb43	0.07066967
52	0x3ea745ca	0.32670432
53	0x3d8aa16f	0.06769072
54	0xbb59fb50	-0.0033261366
55	0x3cdc51b5	0.02689443
56	0xbd252543	-0.04031874
57	0xbd66207c	-0.056183323
58	0x3c0b49f2	0.008501517
59	0x3ba8faf5	0.0051568695
60	0xbe6b76b0	-0.22994494
61	0x3e1a57db	0.15072577
62	0xbd9ec578	-0.07752508
63	0x3d70db5c	0.058802947
64	0x3dbb8e45	0.09157995
65	0x3a6a9e27	0.0008949958
66	0xbe463c57	-0.19358955
67	0x3c7f33fb	0.015576358
68	0xbdb72b35	-0.08943788
69	0x3d90f093	0.07077136
70	0x3c2e5247	0.010639734
71	0x3de2837b	0.11060234
72	0x3b172e5e	0.0023068408
73	0x3dc7e735	0.09760896
74	0xbd3e0de0	-0.04639995
75	0xbe03470b	-0.1282007
76	0x3c38cc47	0.011279172
77	0xbcac7b8e	-0.02105501
78	0xbca8f945	-0.020626673
79	0xbdbd7e6f	-0.09252631
80	0xbc7cf87a	-0.015440101
81	0xbda47d1c	-0.08031675
82	0xbd1a96e2	-0.03774155
83	0xbcbfdeac	-0.023421608
84	0x3e053bc9	0.13011087
85	0xbc18a1fc	-0.009315964
86	0xbd37dd70	-0.044888914
87	0xbc87a86f	-0.016559808
88	0x3d8dce49	0.069241114
89	0x3ddfc417	0.10926073
90	0xbad9115c	-0.001656096
91	0x3d29623f	0.04135346
92	0x3d07b54e	0.03313189
93	0x3c8e9176	0.017403346
94	0x3d833d59	0.064081855
95	0x3c3888a5	0.011263047
96	0x3d35a18e	0.044343524
97	0xbd8e6f44	-0.06954816
98	0x3dbfa627	0.09357863
99	0xbd84f99b	-0.06492921
100	0xbd173447	-0.03691509
101	0xbc6b1568	-0.014348365
102	0xbd0d4e27	-0.03449836
103	0x3df36894	0.11885181
104	0x3d9af70b	0.07566651
105	0x3d68a4f3	0.056797933
106	0xbcfd0a1d	-0.030888611
107	0xbdd7cc83	-0.105370544
108	0x3d6fba89	0.058527503
109	0x3dc25726	0.094892785
110	0x3d2132a0	0.03935492
111	0x3d221f66	0.039580725
112	0xbe0819a6	-0.13291034
113	0xbd5494b3	-0.051899623
114	0xbda95539	-0.08268208
115	0x3de0e12d	0.10980449
116	0xbd3778e5	-0.04479303
117	0x3e750b0a	0.23929992
118	0xbde0b5e3	-0.10972192
119	0x3d89b43a	0.067238286
120	0xbbddcdd5	-0.006768922
121	0xbccd28ad	-0.02504381
122	0x3d87e79b	0.06635972
123	0xbb27901e	-0.0025568078
124	0xbd6f896e	-0.058480673
125	0xbd92076e	-0.07130323
126	0x3b7c2324	0.0038473094
127	0xbdc49d13	-0.09600272
128	0xbe00d72b	-0.1258208
129	0x3d6d148a	0.057880916
130	0xbcd84c5e	-0.026403602
131	0xbe3d9c3d	-0.18516631
132	0x3da9b4d8	0.08286446
133	0xbd958aa0	-0.07301831
134	0xbddebfea	-0.108764485
135	0x3da93f33	0.082640074
136	0x3c06e31e	0.00823286
137	0x3d9fe7b4	0.07807866
138	0xbe1dcc6e	-0.15410015
139	0x3dea70ee	0.11447321
140	0xbc843311	-0.016137632
141	0x3d792072	0.060821958
142	0x3dffbee5	0.12487582
143	0xbd7ce99c	-0.061746225
144	0x3a42c8dc	0.0007430443
145	0xbdec9d26	-0.11553411
146	0xbd7c7359	-0.06163344
147	0xbe120620	-0.14260149
148	0x3d2004ed	0.039067198
149	0xbc594fce	-0.013263656
150	0x3d5f2750	0.05448085
151	0xbd897b00	-0.067129135
152	0x3df07978	0.11741918
153	0x3dae3e2c	0.08507952
154	0xbdb3751e	-0.08762573
155	0xbc90f53b	-0.01769506
156	0xbdffd65b	-0.12492057
157	0xbdc32c1b	-0.09529897
158	0x3d2158b9	0.039391253
159	0xbd5a625c	-0.05331646
160	0x3d6dbaf1	0.05803961
161	0x3d8206f7	0.06348985
162	0x3d77d16e	0.060502462
163	0x3c14f8c3	0.009092513
164	0x3d03b4f6	0.032155
165	0x3e2cc23f	0.16870974
166	0xbc0e0920	-0.008669168
167	0xbd7065d3	-0.058690857
168	0x3d5b7f3b	0.053588133
169	0xbda61477	-0.08109372
170	0xbded1e3b	-0.11578032
171	0x3d825896	0.06364553
172	0xbe064eb0	-0.13115954
173	0xbd8d5af6	-0.06902115
174	0x3d9da2a4	0.07697037
175	0xbd8f0408	-0.06983191
176	0xbd0d3f93	-0.034484457
177	0xbd25a869	-0.04044381
178	0xbd2c9e57	-0.042143192
179	0x3d8330e6	0.06405811
180	0x3d346480	0.044041157
181	0x3db2aca2	0.08724333
182	0x3dc6a445	0.09699301
183	0xbd48a58b	-0.048986
184	0x3d751637	0.05983564
185	0x3d28e647	0.041235235
186	0x3d3a2c6d	0.045452524
187	0xbe3228cc	-0.17398375
188	0xbb9dd2d6	-0.0048163934
189	0x3d595ea2	0.053068765
190	0xbd7ca454	-0.061680153
191	0x3bc2eff0	0.005949013
192	0xbd971950	-0.07377875
193	0x3de30ec7	0.11086803
194	0xbe22b030	-0.15887523
195	0x3d0dfd42	0.034665354
196	0xbdd969d5	-0.10615889
197	0x3cd842d9	0.026399063
198	0x3e018a92	0.12650517
199	0xbcd144e6	-0.025545549
200	0x3e03e467	0.12880097
201	0x3c885008	0.016639724
202	0x3dd682aa	0.10474141
203	0xbbf2508d	-0.0073948563
204	0x3e1e48c8	0.15457451
205	0x3de2754c	0.11057529
206	0xbdf11bc7	-0.11772876
207	0xbd3f32a7	-0.046679165
208	0x3e08eee5	0.13372381
209	0xbc5264b2	-0.01284139
210	0x3ddb591d	0.107103564
211	0x3d8dcf40	0.069242954
212	0x3d20b574	0.039235547
213	0xbdcdae90	-0.10043061
214	0xbde56357	-0.11200588
215	0xbdae384f	-0.08506834
216	0x3e4a6ec3	0.19768815
217	0x3d9fedbf	0.07809018
218	0x3e072dbf	0.13201044
219	0xbc57875f	-0.013154834
220	0xbe4142df	-0.18873166
221	0xbe35bbb8	-0.1774739
222	0x3d95f8e6	0.07322864
223	0x3d3aebca	0.045635022

actor.bias f4 [4]
0	0x3ebd9ab3	0.3703209
1	0xbc947529	-0.018122273
2	0xbd73900e	-0.059463553
3	0xbbfed66c	-0.007777026

critic_linear.weight f4 [1, 56]
0	0x3e635544	0.22200495
1	0x3d723b7e	0.059138767
2	0x3d99c888	0.075089514
3	0xbdd0173a	-0.1016068
4	0xbb41faa3	-0.0029598854
5	0xbe04bc05	-0.12962349
6	0xbe087bda	-0.13328496
7	0xbcf56505	-0.029955396
8	0xbd7ce882	-0.061745174
9	0x3d850821	0.06495691
10	0x3d9447a9	0.072402306
11	0x3dc35d33	0.09539261
12	0xbd8ecb7a	-0.06972404
13	0xbdd2a72c	-0.10285792
14	0xbe46c5b7	-0.1941136
15	0x3d8aabc7	0.06771045
16	0xbd993315	-0.07480446
17	0xbdd624a7	-0.1045621
18	0xbd7328bb	-0.059365015
19	0x3daf7271	0.0856675
20	0xbde810b2	-0.113313094
21	0x3db9f12b	0.09079202
22	0xbdfde11c	-0.12396452
23	0xbde06b51	-0.10957969
24	0xbd47a9c0	-0.04874587
25	0x3d2ba774	0.041907743
26	0x3cb374af	0.021906225
27	0xbdaecda5	-0.08535317
28	0x3dd19da0	0.10235143
29	0xbc47b516	-0.01218917
30	0x3cc9482c	0.024570547
31	0xbd13f560	-0.03612268
32	0xbddd3e5c	-0.1080291
33	0x3b2a0b3e	0.0025946642
34	0x3e1a99ee	0.15097782
35	0x3e583f33	0.21117859
36	0x3de39625	0.11112622
37	0x3df6b32b	0.12045892
38	0x3dc4b36a	0.09604533
39	0x3e062adc	0.13102287
40	0xbe0d18eb	-0.13779037
41	0xbc806b6c	-0.015676223
42	0xbdd5b5cf	-0.10435068
43	0xbe0c7443	-0.13716225
44	0x3c6460d0	0.0139390975
45	0xbd04c852	-0.032417603
46	0xbdd65af3	-0.10466566
47	0xbdd6345a	-0.10459204
48	0x3d98a222	0.074527994
49	0xbd67037e	-0.056399815
50	0xbdfa40d2	-0.12219395
51	0x3e32b01e	0.17449996
52	0xbdf8bb82	-0.12145139
53	0xbe37443d	-0.17897125
54	0xbde91fce	-0.113830194
55	0x3e04cbe0	0.12968397
